model/Real-ESRGAN-x4plus_float/model.onnx (onnx, 442163 bytes, 352 tensors)

model.conv_first.bias f4 [64]
00000000: 95b4 4a3c bea4 2cbe a0e1 0fbd c601 133e
00000010: f699 57bc 2ec3 313e 5778 293d 1de8 57bc
00000020: 255e c23e fa7b 1fbd 4c82 5ebc e43a 9f3c
00000030: 7464 03bd 5da9 3e3d 1ade 89bd 731b bfbc
00000040: 79db e0ba 0971 c6bc 3071 013d 65ef 93bc
00000050: acc9 a9ba 4bb9 e5bc 07f1 fbbc 7e29 6fbc
00000060: 6497 30bc 2073 1dbc 7832 993c 102a 033d
00000070: 4ba0 a6bc 1390 f2bc 5122 c7bc aa1a ee3c
00000080: 1baa 883b 2ac2 cf3c ac0a e5bc aa4e 82bc
00000090: 4e1f eb3c 6edb 5abc b9a4 e0bc 194a bfbc
000000a0: 6a46 2a3d 833e ca3e 43ee a9bd 3604 55bc
000000b0: 4d5b bf3c dcd2 923b 5335 93bc 45f1 1a3d
000000c0: 7cb6 193d 9c35 d2bc 3847 703c d783 eb3c
000000d0: 4490 ea3c a38c adbc c3d7 8fbc e0ff 66bb
000000e0: 05e2 b23c d186 2abe 9632 a93c 2b67 b5bd
000000f0: e356 86be 5e78 85bc 00fe efbc f00a 413c
0.012372156 -0.16859719 -0.035127282 0.14356145 -0.013159266 0.17359611 0.04137453 -0.013177899
0.37962452 -0.038936593 -0.01358087 0.01943726 -0.03207822 0.046548236 -0.06731816 -0.023328518
-0.0017155252 -0.024223821 0.031602085 -0.018058488 -0.001295378 -0.028042456 -0.03075458 -0.014597295
-0.010778282 -0.0096099675 0.018700823 0.032022536 -0.020340106 -0.029609716 -0.024308356 0.029065449
0.004170669 0.02536114 -0.02795919 -0.01590665 0.02870145 -0.01335798 -0.027422296 -0.023350762
0.04157106 0.39500818 -0.08297398 -0.013001492 0.023358965 0.004480703 -0.017969763 0.03782775
0.037527546 -0.025660329 0.014665417 0.02874939 0.028633244 -0.021185225 -0.017558938 -0.0035247728
0.02183629 -0.16652991 0.020654004 -0.08857568 -0.26238164 -0.016292747 -0.029295921 0.011782393

model.body.0.rdb1.conv1.bias f4 [32]
00000000: 7935 6c3e da04 973e ee47 4d3e fe57 36bd
00000010: be13 433e 506c 593e cb40 253e ee78 753e
00000020: 67ca 0838 0f26 0f3e c78b 593e be50 503e
00000030: 92b4 7b3e 1b24 573e c988 c53c 1b53 9d3e
00000040: 5d58 d53d fefd 0c3e 4cce 833e 22d4 3dbb
00000050: 2123 553e 1b76 4d3e ab98 a63d fe64 363e
00000060: f65e a93d 03b4 a13e 2b70 d03d f8a1 003c
00000070: 9859 a83d b978 2cbd d1b4 453e 067f 6b3e
0.23067273 0.2949589 0.2004697 -0.04451751 0.190505 0.21232724 0.16137998 0.23971912
3.261343e-05 0.13979362 0.21244727 0.203433 0.24580601 0.21009867 0.024113076 0.30727467
0.104172446 0.13768765 0.2574333 -0.0028965552 0.20814182 0.20064585 0.08134588 0.17811963
0.082700655 0.3158265 0.10177644 0.007851116 0.08220214 -0.042107318 0.19307257 0.22997674

model.body.0.rdb1.conv2.bias f4 [32]
00000000: aa78 373d 49c3 d13e da1e 383e 1747 f73e
00000010: 21f2 0fbe 5465 d73e a098 f63e b4fc b73e
00000020: 876b d63e 3957 a93e 9fa8 823e 73f6 c73e
00000030: 7fec d23d 3e45 d03e 12da c23e 563e a1bd
00000040: 1d7e c23c c888 c03e 0b52 c73e 856f d33e
00000050: 6af4 ef3e e1db e43e 050c 223e 650d ea3e
00000060: be1d 30bd 87d0 d83e 4b5a 1a3c 3c61 033e
00000070: 928d 7abe 7f29 ea3d e480 d33e e472 da3e
0.04479281 0.40969303 0.17980519 0.48296425 -0.14057209 0.42069495 0.4816332 0.35934985
0.41878912 0.33074358 0.25519273 0.39055213 0.10299014 0.40677828 0.38057 -0.07873218
0.023741776 0.37604356 0.3892978 0.4129602 0.4686616 0.44699004 0.15824898 0.45713344
-0.042997114 0.42346594 0.009420942 0.1283006 -0.24468067 0.11433696 0.41309273 0.4266578

model.body.0.rdb1.conv3.bias f4 [32]
00000000: fa2c e93e afa8 0b3f 09d4 e73e cd9e 1b3f
00000010: 8f35 003f b4a5 f93e 186a e13e b85b 0a3f
00000020: 232e 0c3f 2356 463e 3a36 163f 7d74 0e3f
00000030: e5d6 0a3f 7e68 053f c99f 1d3f ed40 0d3f
00000040: bc51 cf3c 80d0 0a3f a497 003f 5d5b 003f
00000050: 53c6 ec3e cd43 1e3f 3507 fc3e a2d4 38bf
00000060: 4cc9 78bb 54e2 163f 4e65 f73e dead 123f
00000070: 4083 ee3e 0c1a 183f 84f5 003f bfd9 083f
0.45542127 0.54554266 0.45278957 0.60789186 0.50081724 0.48759234 0.44026256 0.540462
0.547579 0.19368796 0.58676493 0.55646497 0.54234153 0.5211257 0.6157194 0.55177194
0.025307529 0.54224396 0.50231385 0.5013941 0.4624506 0.61822206 0.4922425 -0.7219945
-0.003796178 0.589391 0.48319477 0.5729655 0.4658451 0.59414744 0.5037463 0.53457254

model.body.0.rdb1.conv4.bias f4 [32]
00000000: 209f 643d c7c7 203f 4e20 283f d71a 153f
00000010: 5ebf 093f 3363 1a3f e107 1f3f cfb7 f73e
00000020: 33bb 083f 47b5 313f 9317 253f d6a4 153f
00000030: f6c6 233f a066 213f 1208 333f b541 183f
00000040: 9227 033f eadf 1c3f 9d89 1d3f 5b8f 353f
00000050: efe9 243f 593c 223f 6dda 183f 088c 273f
00000060: 8975 fb3e eda7 1e3f 5aa8 243f f3e9 193f
00000070: 74d4 273f 70f6 3e3f 1a48 2b3f 434c 273f
0.055815816 0.62804836 0.65674293 0.5824408 0.5380763 0.60307616 0.621214 0.48382422
0.53410643 0.6941723 0.64489096 0.58454645 0.63975465 0.6304722 0.6993419 0.5947526
0.51232255 0.61279166 0.61538106 0.7092187 0.64419454 0.63373333 0.5970829 0.65448046
0.4911311 0.61974984 0.64319384 0.60122603 0.6555855 0.74594784 0.66906893 0.6535074

model.body.0.rdb1.conv5.bias f4 [64]
00000000: 9def e93c 2108 21be e777 193e 6004 95bd
00000010: b644 9f3d ceb1 413d 9850 48be 0ee4 af3c
00000020: a02c 3cbd 6d34 af3d c0c4 83bd f6f6 1dbd
00000030: 438f 763d de54 dc3d ac21 cb3c 2109 bb3d
00000040: e910 a9bd a1c3 98bc e2cf 63bc 4efd 5a3a
00000050: 4f8e 9bb9 d967 8c3c 1d47 aebd 00f8 ad3c
00000060: d9a0 763c b1e2 7b3d bcb9 7fbd 722f f7bc
00000070: 4400 a33b ee96 f13d 7577 3c3d b5e6 ebbd
00000080: 431d ddbd 56c9 fdbc 6ff1 803d 6f6b 7cbd
00000090: be5b bebd 9d78 8d3d 675e 17bc 64bd f53d
000000a0: 8ebd bd3c e178 df3e 8961 9aba 7c92 d83c
000000b0: 50cc 43bd 209b 2d3a f203 9f3a a006 e4bd
000000c0: bf72 a83c 1305 72bd ccbf b4bc db45 e63d
000000d0: 1cd3 8e3d d373 7d3d b062 be3b 6400 a33a
000000e0: 48ad d93c 381f a4be 0e56 67bc 6e79 843d
000000f0: 56d0 343d e051 233d bbb5 273d ee77 34be
0.02855664 -0.15725757 0.14987145 -0.07276225 0.077767774 0.04728871 -0.19561994 0.02147105
-0.045940995 0.08554921 -0.064340115 -0.0385656 0.06019522 0.10758375 0.02479633 0.091326006
-0.082551785 -0.01864797 -0.013904544 0.00083537854 -0.00029669932 0.017139362 -0.085096575 0.02123642
0.0150529975 0.061495487 -0.06243299 -0.03017399 0.004974397 0.11796366 0.04601236 -0.11518613
-0.10796597 -0.030979794 0.0629605 -0.061625894 -0.09294842 0.06907771 -0.009238816 0.11999014
0.023161676 0.4364691 -0.0011778335 0.026437037 -0.04780227 0.00066225417 0.0012131913 -0.11134076
0.020562528 -0.05908687 -0.022064112 0.112437926 0.0697386 0.061878037 0.0058101043 0.001243603
0.026571885 -0.32055068 -0.014119638 0.064684734 0.044143997 0.039873004 0.040944796 -0.17623875

model.body.0.rdb2.conv1.bias f4 [32]
00000000: c86c 15bd 71f9 73bc 865d acbc 84da adbc
00000010: 8cb4 93bd 3a8b abbc 1f73 1abd 8323 85bc
00000020: 6544 37bc 7618 0fbe d461 e4bc 35a3 b3bc
00000030: 6e9e 9abd 9591 fdbc 6fa7 cfbc 84f3 b7bc
00000040: 71fd c8bc 878d debc 3861 80bd c16a 04bd
00000050: c8f1 9ebc 713c edbc 70b4 75bc 566e b9bc
00000060: 9fbb b0bc 6906 ccbc 5431 8dbd 855d 9abd
00000070: 224f 69bd 9c2b 06bd 9072 72bc 8d32 a2bc
-0.036480695 -0.014891014 -0.02104069 -0.02122236 -0.07212171 -0.020940412 -0.037707444 -0.016252285
-0.01118574 -0.13974175 -0.02787868 -0.02192841 -0.07549749 -0.030953208 -0.025348393 -0.022454984
-0.024534913 -0.027167095 -0.06268543 -0.03232837 -0.0194024 -0.028959485 -0.014996633 -0.02263562
-0.02157384 -0.0249054 -0.06894174 -0.07537369 -0.056960233 -0.032756433 -0.014797822 -0.019799495

model.body.0.rdb2.conv2.bias f4 [32]
00000000: 6c9a b2bd 782e 0abc 0070 8dbc 4d10 f5bc
00000010: dc27 91bd 63de 30bd 646a ffbd 43db 39bd
00000020: caa9 35bd b0d4 51bc c40b 13be 0833 ffbe
00000030: cafc 08be deb2 aabd 6482 b5bc f92b abbd
00000040: 1011 69bd ec0c 66bd 0c2b 63bd 892a 66bd
00000050: 9306 a9bc 1c6f fbbc dc27 b5be 18d7 fdbc
00000060: 3cf1 c6bd 1f11 36bd 8c46 5ebd 0571 f9bd
00000070: af47 e3be 34b9 f8bd 3073 bcbc 183a 9cbd
-0.0872086 -0.008433931 -0.01726532 -0.029915 -0.07087681 -0.043180835 -0.12471464 -0.04537512
-0.044351377 -0.012807056 -0.14359957 -0.4984362 -0.13377681 -0.083348975 -0.022156902 -0.083579965
-0.056901038 -0.056164667 -0.055460975 -0.05619291 -0.020633018 -0.03069263 -0.35381973 -0.030986354
-0.097139806 -0.04444992 -0.054266497 -0.1217976 -0.44390628 -0.121447 -0.023004144 -0.07628268

model.body.0.rdb2.conv3.bias f4 [32]
00000000: 2d22 363e b483 5e3e f327 ab3d ccf8 3d3e
00000010: 0e8c 1e3e 4d2e 283e fc72 563e 1a7e 423e
00000020: 71dc 0abe 92e5 e1bc 7de7 a0bd 950a e83d
00000030: d5aa 5cbd bd03 b33d 2412 82bd 1dc7 1bbe
00000040: 6027 0cbd 24dd 0a3d 94d4 4f3e 4440 f63d
00000050: 2bea 41bd 6bba db3d abbb 123e d6f8 d3bd
00000060: 4a44 49be c11c 8abe 9c23 69bd db8a 0f3e
00000070: 3ad7 3fbd 2b66 963d 6a12 033e 3a1e e03c
0.17786475 0.21729928 0.08357229 0.1855194 0.15483114 0.16423912 0.209423 0.18993416
-0.13560654 -0.027575288 -0.07856653 0.11330143 -0.053873856 0.087409474 -0.06351116 -0.15212674
-0.03421724 0.033902302 0.20295936 0.120239764 -0.04734246 0.10728916 0.14329402 -0.10350196
-0.19654956 -0.26975062 -0.056918725 0.14017813 -0.046836115 0.07343706 0.12799993 0.027358163

model.body.0.rdb2.conv4.bias f4 [32]
00000000: dea5 3cbe f9e2 a63e f59f 5b3e 802e 8c3e
00000010: 55ab 5f3e 8c28 c2bc e7d1 0bbd 6472 09be
00000020: 18e4 3c3e a72d 453e 0122 a63e 3bb7 a53e
00000030: 4034 3c3d 9d24 a13e 922a 6f3e ead4 803e
00000040: 05e6 4d3e b13d 273b dec5 37be ab32 913e
00000050: ebc6 ea3d bb24 1a3e c4c6 40be 04e1 ab3e
00000060: 26a3 4f3e 14aa 6abd 6eb6 243e 02fb 93bb
00000070: baf7 6abe 0497 e63c 2193 dabc b4cb 163e
-0.18422648 0.3259504 0.21447738 0.27379227 0.21842702 -0.023700975 -0.034135725 -0.13422543
0.18446386 0.19255696 0.32447818 0.32366356 0.045948267 0.31473246 0.23356083 0.2516244
0.20107277 0.0025518949 -0.17946574 0.2835897 0.11463722 0.15053074 -0.18825823 0.3357011
0.2027708 -0.057291105 0.16085216 -0.0045160064 -0.22946063 0.028148182 -0.026681485 0.14726144

model.body.0.rdb2.conv5.bias f4 [64]
00000000: c7da 043c 4818 84bd c486 d13c a25f 8abc
00000010: 691e 7f3c 3678 cdbc 12d0 3b3d a3b3 1f3c
00000020: e718 b4bd c7c6 083d da0a c1bd bc56 e43c
00000030: af28 003c 72c7 923d dfab 28bc f70b c0bb
00000040: 69e0 cabb ecae 97bc 8379 083d bf5b 24bd
00000050: 3571 5abc 703b 3abd 4b00 15bd 1112 b93a
00000060: e1a3 4fbc 679a 32bd 0bda 27bd 9280 05bd
00000070: e3a0 e6bc 8d8f 0c3d 23d8 5ebd da1e 99bc
00000080: d471 3dbb c320 5fbb 6e44 b4bc a470 c23b
00000090: a7b8 afbc 1519 b7bc 2c68 ad3c 4ac3 263d
000000a0: 64f4 973b 72f9 483e 337c 4c3d 2968 1c3c
000000b0: fdfe 23bd 649f 0c3b 344e 50bc 90b8 79bc
000000c0: 0fdb 9fbc 9ed4 7cbb 0914 f8b7 f928 573b
000000d0: 02fd fe3c 4890 5abd a9a1 523b f08f 95bc
000000e0: 968a d2bd 565f 67bd 4bcc c0bc 4129 473d
000000f0: 51af c53d 6f57 383d f714 ff3c b57c 5b3c
0.008108801 -0.06449944 0.025576957 -0.016891304 0.015571215 -0.025081735 0.04585273 0.009747419
-0.08793812 0.033392694 -0.09425898 0.02787339 0.0078222 0.071669474 -0.0102948835 -0.0058608013
-0.0061913026 -0.018516026 0.033319008 -0.04012656 -0.013332655 -0.04546684 -0.036377233 0.0014119764
-0.012673349 -0.04360428 -0.040979426 -0.032593317 -0.028152889 0.03431659 -0.054405343 -0.018691469
-0.0028906958 -0.0034046627 -0.022005286 0.005933838 -0.021450354 -0.022350827 0.021167837 0.040713586
0.004637288 0.19626406 0.049923133 0.009546318 -0.040038098 0.002145731 -0.012713958 -0.015241757
-0.019513635 -0.0038578878 -2.9573233e-05 0.0032830818 0.031126503 -0.053360254 0.0032139814 -0.018257111
-0.102803394 -0.056487404 -0.023534914 0.048623327 0.096525796 0.04500526 0.031137927 0.013396432

model.body.0.rdb3.conv1.bias f4 [32]
00000000: 17cf 33bd 074e 9dbc ed1a e3bc 64a7 29be
00000010: 5fd7 cbbc 4819 13bd 7c41 2ebc 19de a1bc
00000020: c025 a1bc c948 bcbc fddc 33bc 2c56 1bbc
00000030: 0898 e6bc 50cf 27bd c509 57bd 648a 9ebc
00000040: a3f6 d0bc 96d4 36bb b26a 83bd 1457 4bbd
00000050: 84fb 37bd bd58 0cbc 0fb2 debc 0b93 a0bb
00000060: 3b36 01bd aefc 95be 0113 d7bc 2c07 b1bc
00000070: fd14 2bbe 4f9f d3bb 5321 bfbc 6fb3 f9bc
-0.04389867 -0.019202245 -0.0277228 -0.1656776 -0.02488297 -0.035912782 -0.01063573 -0.019759225
-0.01967132 -0.022983925 -0.010977981 -0.009480994 -0.028148666 -0.040969193 -0.05249955 -0.0193531
-0.02550823 -0.0027897707 -0.06416835 -0.04964359 -0.0449176 -0.008566079 -0.027184514 -0.0049003414
-0.03154586 -0.29294342 -0.026254179 -0.021609865 -0.16707225 -0.0064582 -0.02333132 -0.030481068

model.body.0.rdb3.conv2.bias f4 [32]
00000000: f341 b5bd 63f9 21be 10c2 16be 1bcd 97bd
00000010: 9b23 43bf 360c 87be 729f 49bc ce35 b0bd
00000020: 520a 8e3d cc44 1dbd 832c 25be 3a1e 8abd
00000030: 9aaf 89bd 80e0 e6bc 1355 05bd f873 363c
00000040: c3c1 34be 69a4 a7bd fb8d f2bd 999a ccbd
00000050: 42a4 c1bd 44ed 1fbe 0715 e5bd 7aa0 96bd
00000060: ef19 36be 22ad 43be 09ea a7bd 99d1 ddbd
00000070: 78d3 a4bd 8239 a4be bc86 c8bd 7574 abbd
-0.088504694 -0.1581779 -0.14722466 -0.07412168 -0.76226205 -0.26376504 -0.012306081 -0.086040124
0.06935562 -0.038395688 -0.16130261 -0.067440465 -0.067229465 -0.028183222 -0.032551836 0.011136048
-0.17652039 -0.081856556 -0.11843487 -0.09990425 -0.09455158 -0.15617853 -0.11185651 -0.07354827
-0.1778333 -0.19109014 -0.081989355 -0.10830993 -0.08048147 -0.32075125 -0.097913235 -0.08371822

model.body.0.rdb3.conv3.bias f4 [32]
00000000: 65c7 ec3e 2ca9 b8bd bc7b afbe b73f 35be
00000010: d5f0 99bd a5c5 11bd f996 20be c7bf 583e
00000020: 6b64 14be 36bc 7bbe 02b8 d8be 74c6 5ebe
00000030: a706 44be 75a7 96bd da40 38bd 68d3 3ebe
00000040: ffb9 553c 7854 d7bc a4b5 e9bd 6d3e 05be
00000050: 3e51 97be 2498 aa3d 65d8 7c38 1e82 f03c
00000060: c9d3 14be d117 99bd 84a3 26bd dd5e 93bd
00000070: 86b7 1bbe f212 e6be b1dc a9bd bdee abbd
0.46245876 -0.09016642 -0.3427409 -0.17700087 -0.07516638 -0.03558888 -0.15682591 0.21166907
-0.14491431 -0.24583516 -0.42327887 -0.21755391 -0.19143163 -0.07356159 -0.044983722 -0.18635333
0.013044833 -0.026285395 -0.11411598 -0.13012095 -0.2955417 0.083298 6.0283015e-05 0.02935892
-0.14533915 -0.07475246 -0.040683284 -0.07195828 -0.15206727 -0.4493633 -0.08294047 -0.08395145

model.body.0.rdb3.conv4.bias f4 [32]
00000000: c30a e6be a8bd 9cbe 954d 8abe 9046 a4be
00000010: 31f7 ffbc 6a32 2fbe 4f8c 063e e631 55bd
00000020: ea26 28be b260 a4be baa5 d8bd 8de7 d2be
00000030: 4b10 0bbd 2012 c1be a5fd 42be a8a0 02bf
00000040: eee9 b0bd e46d 843e 4a79 bfbe 4224 46bf
00000050: 13fe a5be c201 61be 6700 a4be 9a32 89be
00000060: 973b acbd db75 09be 0495 19bf 685b e9bd
00000070: 662c c43c f4be 97be 811c b8be 5ebc debe
-0.44930086 -0.30613446 -0.27012315 -0.32085085 -0.0312458 -0.17109075 0.13139461 -0.05204954
-0.16421095 -0.32105023 -0.10578485 -0.41192284 -0.033951085 -0.3770914 -0.1904207 -0.5102639
-0.086383685 0.2586509 -0.37397224 -0.77399075 -0.32420406 -0.21973327 -0.32031557 -0.26796418
-0.08409803 -0.13423865 -0.59993005 -0.113943875 0.023946952 -0.29637873 -0.35959247 -0.43503088

model.body.0.rdb3.conv5.bias f4 [64]
00000000: 79ac 093e 2989 81bf acaf 94bd ef05 e83e
00000010: a47d 5a3e aba0 543f 8ba5 343e 6160 fbbd
00000020: a5c0 dd3e 5e85 57be db1b a53d 61c2 913e
00000030: 8f20 05bf 6fbe b03e 098c 33be 4c79 e0bb
00000040: ca6a b2be 7cf0 463e c29c 9ebe f08d 16be
00000050: ef8d aabe f860 8ebe 18fb 0bbe ad39 16bd
00000060: d3b9 813e 2069 86be a84f fcbd 5a66 993d
00000070: aa1a bdbb c3a3 01be eeed 973e 89e3 1dbd
00000080: cf2d afbe 0034 8dbe 8f6e aa3d 3c90 dabd
00000090: 3254 493e b338 8cbd 9afa 673e e6d7 9b3e
000000a0: 3d99 623d 0283 2e3f c900 dd3c 2872 0f3d
000000b0: 362e 74bd 8baa 8d3c 2099 6bbe b0df 063d
000000c0: b67d 543e 2a34 a1bd 850f 83bd db3e dc3e
000000d0: 8866 d53e 81bb e13d c097 cabd 4728 bfbe
000000e0: 8693 423d 7db2 83bf 5d43 5dbe b5d3 a83d
000000f0: 3f2f 13bf 6fed c4bc b68f 833d 04cd 1d3e
0.134447 -1.0119983 -0.07260069 0.45317027 0.2133699 0.8305766 0.17641275 -0.12274242
0.4331104 -0.2104697 0.08061954 0.28468612 -0.52002805 0.3452029 -0.17533888 -0.006850397
-0.348471 0.19427675 -0.30978972 -0.14702582 -0.33311412 -0.27808356 -0.13670003 -0.036676098
0.25337085 -0.2625208 -0.12319881 0.07490225 -0.005771001 -0.12660126 0.29673713 -0.038547073
-0.34214637 -0.27578735 0.08321869 -0.10672042 0.19661024 -0.06846752 0.2265419 0.30438155
0.05532192 0.6816865 0.026977913 0.035020977 -0.059614383 0.017293235 -0.23007631 0.03292817
0.2075108 -0.07871278 -0.063994445 0.43016705 0.41679788 0.11022092 -0.09892225 -0.37335417
0.04750397 -1.0288845 -0.21607728 0.08243505 -0.57493967 -0.024038998 0.06423895 0.15410239

model.body.1.rdb1.conv1.bias f4 [32]
00000000: 2ae4 9bbd 679b 83bd 1c09 b0ba 472c 0d3d
00000010: 17ce 70bc a3f9 10bd 04e0 17bd 53b1 c63d
00000020: 8587 4dbd 2c06 4cbc 818c c5be 29af bbbc
00000030: 3b04 91bc c00c b5bc 4c0d 0e3c 2fbf 25bc
00000040: 6814 6bbc d9c1 99bd 2d38 8c3b 68c2 e0bc
00000050: 504e fdbb 990e 103d 5552 95bd 29a9 91bd
00000060: 3582 76bd 567b 94bc 5716 abbc f54d a7bd
00000070: 681a 853c bf51 17bd 56b9 4dbe f8c1 af3b
-0.07611878 -0.06426125 -0.0013430449 0.034466054 -0.014697573 -0.035394322 -0.037078872 0.09701791
-0.05017807 -0.012452643 -0.38583758 -0.022910671 -0.017702213 -0.022100806 0.008670162 -0.0101163825
-0.014348127 -0.07507677 0.0042791576 -0.02743645 -0.007730283 0.03517017 -0.07291094 -0.07112343
-0.06018277 -0.018125217 -0.020884676 -0.08169166 0.016247943 -0.036943194 -0.20090231 0.005363699

model.body.1.rdb1.conv2.bias f4 [32]
00000000: 1cf3 f33d d8ea f5bd 5696 26bb 6f03 153d
00000010: 0cac b1bd 5d4c 4ebd 0acd 6f3d c9fd bdbc
00000020: b051 0cbe d1e2 f43c 4415 033e fc40 533d
00000030: 5c0e 6d3d 2756 ffba 3c08 103d 2a9f 1fbe
00000040: 23d3 05be d3a6 773d d0bc 94bc 0bc1 8bbd
00000050: 60ad 213d 8aee 3ebe 8d69 c43c b802 c3bd
00000060: f950 09bc d9e0 8dbd 0613 7abe 3247 483d
00000070: 2bd1 583d c5d9 9dbe b3d1 5abd cde8 d43d
0.11911604 -0.120076835 -0.0025419197 0.036380228 -0.086753935 -0.050365794 0.05854515 -0.023192303
-0.13703036 0.02989331 0.12801081 0.051575646 0.057875022 -0.0019480631 0.035164103 -0.1558806
-0.13068824 0.06046183 -0.018156439 -0.068239294 0.039471984 -0.18645683 0.023976112 -0.09522003
-0.008381122 -0.06927652 -0.2442132 0.048896022 0.052933853 -0.30830207 -0.05342264 0.10395966

model.body.1.rdb1.conv3.bias f4 [32]
00000000: 9bd2 0a3e 6e44 a8bc aa5c a83c 7eeb 813d
00000010: 5b59 39bd 14f7 e6bc b401 023e 38f3 25ba
00000020: f995 6bbc 3551 f73d 5d85 4d3e a36a 1d3e
00000030: e380 8d3b eab1 bebd 32e8 683d 3ac6 df3d
00000040: c185 f0bd 6e83 dabc 1478 743d 5ac1 0c3e
00000050: 6f01 05be 1cd5 9cbd a5c3 dcbd d1b7 003e
00000060: b8c7 e1bd 1db8 243e 2fb4 123e 75d4 42bd
00000070: 1ce9 b1bb c433 88bd 82d4 403e dfcf e2bd
0.13556902 -0.020540442 0.020551998 0.06343745 -0.04525123 -0.028193988 0.12695962 -0.0006330493
-0.014379018 0.12076036 0.20070405 0.1537271 0.004318343 -0.09311278 0.056862064 0.109264806
-0.117442615 -0.026673999 0.059684828 0.13745633 -0.12988828 -0.07657835 -0.10779504 0.1257012
-0.110244215 0.16085859 0.14326547 -0.047565896 -0.0054294 -0.066504985 0.18831065 -0.110748045

model.body.1.rdb1.conv4.bias f4 [32]
00000000: b291 823d 77d3 113e 248f d13d 2bdc ae3d
00000010: 393c 193d c0f8 033e c28c 1fbd 0368 9e3d
00000020: 9576 373d 45ae b73d 491e 833d e649 51be
00000030: 2a17 6abe 115d 2a3d ea3c 8bbe c28e 19be
00000040: 6238 63bd e9fe 0dbe 1851 00be 3c9b b83d
00000050: 11c6 87bd 8c65 0e3e 2c0c 32be 4615 b7bd
00000060: cf74 e23c 6c93 3bbd b9c4 dc3d 9386 bfbe
00000070: 2c2e bebd ff2b bf3d 03bd 39be 13a6 cd3d
0.063754454 0.14240824 0.1023238 0.085380875 0.03741095 0.1288786 -0.038952596 0.077346824
0.044790823 0.08968786 0.06402261 -0.20438346 -0.22860399 0.04159266 -0.2719491 -0.14995864
-0.055473693 -0.13866772 -0.12530935 0.090139836 -0.06629575 0.13905925 -0.17387456 -0.089396045
0.02764359 -0.04579489 0.10779709 -0.3740736 -0.0928615 0.093345635 -0.18138508 0.10041442

model.body.1.rdb1.conv5.bias f4 [64]
00000000: 01d0 a73d 76e3 fdbd 8da5 dcbd c538 7e3d
00000010: 77fb 053d 5206 90bc 8ae4 a4bd 75ed a5bc
00000020: 5b1e e83d e226 cd3b 1d10 4a3c 4bb1 d63d
00000030: 6804 ca3c 1875 4d3d 4950 20bd cb4e 05bd
00000040: b79d 383c 1393 50bc 5018 a4bd d38d 563d
00000050: 03f9 af3b b208 03bd 3623 833d e7ff f63d
00000060: a1d3 87bc 0835 7f3c 4aca 52bd bb37 483b
00000070: 9830 893d cc26 133d a806 a53d 7b68 583c
00000080: bd4a 853d 9762 b8bc d2b3 64bd 1b0a b1bb
00000090: b755 4cbd 338a 803d 6f36 3f3d 0685 713d
000000a0: 6af9 c23c 5d2b a8bd b39e b73e cec3 3dbd
000000b0: 2449 f2bd ad3f 88bc 1bb3 223d be44 4dbc
000000c0: 62e0 2abe b5f5 773d 6a64 3e3d 75a3 853d
000000d0: 6452 413e 03df 1c3e 8da0 f13c 0a3d 45bd
000000e0: 19d1 583d 5bfc e6bd 05a5 883c 468e e3bd
000000f0: 7f19 173e d39d 7bbc cd3c 01bd 0974 c03d
0.081939705 -0.123969 -0.10773764 0.06206586 0.03271052 -0.017581139 -0.08051403 -0.02025483
0.11333915 0.0062607387 0.012332943 0.10483035 0.024660304 0.050160497 -0.039139066 -0.032545846
0.011268071 -0.012730378 -0.0801245 0.052381348 0.0053702607 -0.031990714 0.064032 0.12060528
-0.016580405 0.0155766085 -0.05146245 0.0030550796 0.06698722 0.03592567 0.0805791 0.013208504
0.06508396 -0.022507949 -0.055835553 -0.005402816 -0.04988643 0.062763594 0.04668277 0.05896475
0.02380057 -0.08211396 0.35863265 -0.046329312 -0.11830357 -0.016631925 0.03972159 -0.012528596
-0.16687158 0.06053706 0.04648248 0.065253176 0.18879086 0.15319447 0.029495502 -0.048153915
0.052933786 -0.11278602 0.01668025 -0.11111121 0.1475582 -0.015357452 -0.031552125 0.09397132

model.body.1.rdb2.conv1.bias f4 [32]
00000000: 7269 1bbd 20fb 0ebd 3e3a 25bd 8024 f0bc
00000010: e0ec 47bd c1ce 81bc dd78 42bd cc23 04bd
00000020: 5afe b5bc 36f0 3fbd 6442 6dbc 46c1 a0bd
00000030: 25a9 0cbd e046 11bd 3192 54bd 289d 1abd
00000040: 5ba0 0bbe c376 0fbd 29c9 9bbc 4c84 5dbd
00000050: 7811 40bd 7957 cfbd a6d6 1fbd 4f79 0dbd
00000060: 94a7 1fbd f7d8 a5bc 3228 3bbd c243 05bd
00000070: 5427 49bd 80f7 42bd d2a7 17bd 3c03 aabc
-0.037942357 -0.03490746 -0.040338747 -0.02931428 -0.048809886 -0.015845658 -0.047478545 -0.0322607
-0.02221601 -0.046859942 -0.014481161 -0.07849364 -0.034340996 -0.035467982 -0.05189723 -0.037747532
-0.1363539 -0.03502537 -0.01901682 -0.054081246 -0.04689166 -0.10124106 -0.039023064 -0.034539517
-0.038978174 -0.020245058 -0.04569263 -0.032535322 -0.04910977 -0.047599316 -0.03702528 -0.020753495

model.body.1.rdb2.conv2.bias f4 [32]
00000000: bcc2 05be ff81 08be d4e1 acbd 184b 7cbd
00000010: 5b9e 52bc 805a 03be fc4c f4bd 78af 8dbd
00000020: 1452 4ebd 8a3e 00be 11b4 94bd 5cfa 93bd
00000030: a855 94bd 335b b6bd 4999 c1bd 6428 06be
00000040: 4d2c 4ebd ded6 95bd 2eb3 cbbd f7dd 2cbd
00000050: 97e7 8abd 384f a4bd c112 463c 0a78 5ebd
00000060: dc5e bcbd ec89 45bd 95ea ffbd 237d f2bc
00000070: b418 edbd 7072 dfbc ed5e 50be ff7c 9fbd
-0.13062567 -0.1333084 -0.08441511 -0.061595052 -0.012855138 -0.12827492 -0.11928746 -0.06918234
-0.050371245 -0.12523857 -0.072609074 -0.07225487 -0.072429 -0.089041136 -0.09453065 -0.13101345
-0.050335217 -0.07316373 -0.09946285 -0.04220387 -0.067824535 -0.08022922 0.012089432 -0.054313697
-0.091977805 -0.048227236 -0.12495915 -0.029600685 -0.11576977 -0.027276248 -0.20348711 -0.07787513

model.body.1.rdb2.conv3.bias f4 [32]
00000000: 05ac 47be 858c 0f3e d07c 1fbe 1733 b5bd
00000010: 7b7c d7bd 74a2 babd 3d94 00be ba91 c0bd
00000020: 8e08 15bd 84ef 1cbb 871b 88bd 4509 60be
00000030: f8b6 c0bd a694 c5bd db70 37be ae02 34be
00000040: d486 00be e3c6 693d c8b4 d0bd 6686 33be
00000050: f9cc 13be c7cc 0ebe 892c a6bb 1040 223c
00000060: a866 03be 5471 dabd a0ad 70bd 247f 2abe
00000070: 1813 02bd d354 bfbd 0b5c 54bc 6574 d6bd
-0.19499214 0.14018448 -0.15574956 -0.08847635 -0.1052179 -0.09113017 -0.12556548 -0.09402795
-0.03638511 -0.0023946473 -0.066458754 -0.21878536 -0.094098985 -0.09647493 -0.17914145 -0.17579147
-0.12551433 0.05707444 -0.10190731 -0.17531738 -0.1443366 -0.13945304 -0.005071227 0.009902969
-0.12832129 -0.10666147 -0.05875933 -0.16650063 -0.03175649 -0.09342351 -0.012961398 -0.10471419

model.body.1.rdb2.conv4.bias f4 [32]
00000000: ec46 47be 7f97 65be a992 82be 43a0 64bc
00000010: 592c 63bd 39f9 353e 8628 2ebe c0c7 3dbe
00000020: 0e1b 13bd 9cf6 aabe bf11 b1bd 109b 66be
00000030: 9fb2 b2bd 2cda e2bd 0567 75be ddba 97be
00000040: 1880 cbbd d7bd 5dbe 7650 32be 4b32 c3bd
00000050: ef74 31be a6eb 40be 9d35 17be 4bfb 46be
00000060: af31 36be 9fb3 1cbe f277 89bd 6a15 58be
00000070: 37cf 10be a68c 31bd b455 08be 2b8b 9dbe
-0.19460648 -0.22421072 -0.25502518 -0.013954225 -0.055462215 0.17770852 -0.17007646 -0.1853323
-0.035914473 -0.33391273 -0.08645963 -0.22520089 -0.087254755 -0.11076769 -0.2396508 -0.29634753
-0.09936541 -0.2165445 -0.17413506 -0.09531077 -0.17329763 -0.18839893 -0.14766546 -0.19431798
-0.1779239 -0.15302895 -0.06712331 -0.21101919 -0.14141546 -0.043347023 -0.13313943 -0.3077024

model.body.1.rdb2.conv5.bias f4 [64]
00000000: 6998 2c3d bd35 2b3c 89a9 023e df26 5dbc
00000010: f9be a13d f773 40bd b1b6 e93c 6169 a73e
00000020: 45f2 15be 947d f7bc 8824 ac3d bae6 753d
00000030: e96e 173d 874b 06be 8979 9bbc 8fa9 cd3c
00000040: dc85 e8bd 7280 3c3d bb4c 243d b606 7b3d
00000050: 77e4 33bd 1d31 a73c 5092 87bd bc11 8d3d
00000060: 9539 823d 3494 37bd 3e2a 0dbd d5fe 92bd
00000070: 9e10 9abd 1a1c e03c 25d8 65bd ee2d 8d3d
00000080: 31eb 02be 0f03 16bd eeee 40bd 0092 8fbd
00000090: f622 b2bc 66ab 5c3d 703f 85bd feb4 46bd
000000a0: dc18 14bd 5117 053e d91e c9bc 272f cdbd
000000b0: 05a9 873c 05d7 5dbc 760d 053d 907b 9a3b
000000c0: 119f 4a3d fec9 fe3d 008f 18bd 2139 efbc
000000d0: aa18 203c c14e 80bc 9f9e e3bc 576d efbb
000000e0: 7a0c 22be d0ea 1b3c c50f 353d bfec 6fbd
000000f0: cbb7 aa3d 7d36 bbbc b529 df3c 3bb4 a63d
0.042137537 0.010449824 0.12759985 -0.013498037 0.07897753 -0.046985593 0.028529497 0.32697585
-0.146432 -0.030211248 0.08405405 0.06003449 0.036971007 -0.13114749 -0.01897885 0.025105266
-0.11353657 0.046020932 0.04011224 0.061285697 -0.043919053 0.020409161 -0.06619704 0.06888148
0.06358639 -0.044819072 -0.034464113 -0.071775116 -0.07522701 0.02735715 -0.056114335 0.06893526
-0.12785031 -0.03662401 -0.04710286 -0.07010269 -0.021745186 0.053874396 -0.0650624 -0.04851245
-0.03615652 0.12997176 -0.024550842 -0.10018759 0.016560087 -0.013540034 0.03248354 0.004714437
0.049468104 0.12440871 -0.03724575 -0.029202046 0.009771505 -0.015662553 -0.027785597 -0.0073067355
-0.15825072 0.009516433 0.044204492 -0.058575388 0.08335837 -0.02285313 0.027241567 0.08139845

model.body.1.rdb3.conv1.bias f4 [32]
00000000: 8a92 3dbd 1c8a ebbd 63b6 e9bc 2131 14bd
00000010: e647 a2bd 96cf 56bd 1e0d dfbd 1fe2 43bd
00000020: c137 bfbd 2d49 acbd 7bdc 4cbd fced a6bb
00000030: f591 90bd b94b e4bc 665f e2bd a211 6bbd
00000040: df79 c8bd 3245 49bd 087b 7cbd eacf b9bd
00000050: d95c b4bd efe2 35bd d6cd 07be b201 a1bd
00000060: 6ae1 e0bd 6618 f4bd 58bd a0bd ed38 8abd
00000070: d09b 87bd 34eb c8bd 02ee 35bd 639d 94bd
-0.04628233 -0.11500952 -0.028529352 -0.036179665 -0.0792387 -0.052444063 -0.10891174 -0.047823068
-0.09336806 -0.08412395 -0.050014954 -0.005094288 -0.07059089 -0.027868139 -0.11053352 -0.057389863
-0.0978887 -0.049138255 -0.06164077 -0.090728596 -0.08806772 -0.044405874 -0.13262114 -0.078616515
-0.10980494 -0.11918716 -0.078486145 -0.06749139 -0.06621516 -0.098104864 -0.044416435 -0.07256582

model.body.1.rdb3.conv2.bias f4 [32]
00000000: d3dd 2abe cea1 66bd d6ae c8bd b7f4 883d
00000010: 0d4a bcbe 02a7 f0bc 2fb1 ddbd 663a 51be
00000020: 07d4 abbd 9467 2e3d 5c10 88bd 8c87 a8bd
00000030: 61f9 e53b 0266 adbd ec2d 03be f350 5bbe
00000040: 4b60 8abe be84 95be 4ec5 2dbe d2a1 3dbe
00000050: 34df 03be bad3 c9bd 3ff6 3dbe 25a0 05be
00000060: 34f8 acbd 90cb f6bd fa66 aebe 06c2 7dbe
00000070: c846 0dbe a5be 803d d8f3 22be e6ca d6bd
-0.16686182 -0.056306653 -0.09798972 0.06687301 -0.36775246 -0.02937651 -0.10824811 -0.20432433
-0.083900504 0.04257925 -0.06643745 -0.082289785 0.0070182537 -0.08466722 -0.12810487 -0.21417598
-0.2702659 -0.29202837 -0.16969797 -0.18518761 -0.12878114 -0.09854837 -0.18550967 -0.13049372
-0.084457785 -0.12050545 -0.3406294 -0.24781045 -0.13796532 0.062863626 -0.15913332 -0.104879186

model.body.1.rdb3.conv3.bias f4 [32]
00000000: df0f e9bd 012f a1be 20b3 ffbc cc65 2bbd
00000010: d101 233d a5fa ea3d 4d5e ccbc 1efa 11be
00000020: dfc0 94bd 4808 80be 3852 c6be 8cee 4cbd
00000030: 8500 3dbe dffb a8bd 9372 04be 1c88 a9bd
00000040: 4130 eebd f31d 65be 2dbc 20be 8e38 853e
00000050: 5b68 343c 8a40 01be d152 92bd 2df8 3fbd
00000060: 6371 47be 7e2d 1dbd 24e9 92be 51eb 43be
00000070: 29c6 79be d2b7 87be 9ce5 3a3e 329e 0e3d
-0.1137998 -0.31481174 -0.031213343 -0.041845128 0.039796654 0.11473588 -0.02494731 -0.14255568
-0.0726335 -0.25006318 -0.38734603 -0.050032184 -0.1845723 -0.082511656 -0.12934332 -0.08277914
-0.116302975 -0.22374706 -0.15696783 0.2601971 0.011011208 -0.12622276 -0.07144702 -0.04686754
-0.19476847 -0.038373463 -0.28693497 -0.19132735 -0.24391998 -0.2650743 0.18251652 0.034818836

model.body.1.rdb3.conv4.bias f4 [32]
00000000: cbf0 cb3b 949f 913c f1e2 38be cd55 babd
00000010: 4d4e 23be 1e3c 4c3c 9aa6 24be 0197 f73b
00000020: 2e1d d5bd 718c ffbd 834f 5b3e d09c 0fbe
00000030: 74b2 a03d d0de 5f3c 2651 15be aa17 11be
00000040: b639 1abd 4cdc 33be 69fc bc3d 030f df3c
00000050: 84d2 86bd 036b 25bd a910 b7bd 6423 1c3d
00000060: f679 53bc 20a9 56bc be22 4abd 9f13 503d
00000070: 4002 9ebe 4617 2d3d 1b7c 8ebd 429b cabe
0.006223773 0.017776288 -0.18055321 -0.090983965 -0.15947838 0.012465505 -0.16079178 0.007555843
-0.10405956 -0.12477959 0.2141705 -0.14024663 0.07846537 0.0136639625 -0.14581737 -0.14169183
-0.037652694 -0.17564505 0.09227831 0.027228838 -0.065831214 -0.040385257 -0.089387245 0.03811969
-0.012907496 -0.013101846 -0.04934954 0.050799962 -0.30861092 0.042258523 -0.06957265 -0.39571577

model.body.1.rdb3.conv5.bias f4 [64]
00000000: f214 22be 87ba f0be ce3b 473d 91cd af3e
00000010: 7cbd bc3d 2bcf dc3e 8d20 413e 31cd 843d
00000020: 623b 3ebd ae52 21be c5ee 433e 2f2a 6d3d
00000030: 6808 08bf 3592 113d c785 9cbe 5416 38be
00000040: 8f4a 83be e3dc 043c 0143 b3bd 3433 66bd
00000050: bd58 7abe 1891 b63d 9eec 60be 4273 e73d
00000060: e271 5f3e 5a98 2bbe 8148 05bd 596b 623e
00000070: 335a 563d a797 05be 0e11 9ebc daf8 b8bd
00000080: da13 c7bd 8edf a1bd caeb 4dbe 2bb1 023e
00000090: 003d 4e3e 933b 06bd dbb0 293e 0635 d43d
000000a0: 883a 533d 7963 633f e45c 333e 004b b9bd
000000b0: c6a3 08be 5552 5a3e 252a 0cbe ff84 d33d
000000c0: c79a 353d c62f 94bd ebfa ddbd f0ab 903e
000000d0: daff 853e a193 c03c f740 923d 69f5 1f3d
000000e0: f09b 043e 80fb 23bf 5fed 67bb 993d bc3d
000000f0: d203 babe 1b1a 23be 3a78 563e bbf1 703d
-0.15828303 -0.4701731 0.04864102 0.34336522 0.09215829 0.43126807 0.18860073 0.0648445
-0.04644335 -0.15754196 0.19134052 0.057901558 -0.53137827 0.035539825 -0.30570814 -0.17977268
-0.2564282 0.008109304 -0.08753014 -0.056201175 -0.24447913 0.08914393 -0.21965262 0.113012806
0.21820787 -0.16757336 -0.03253985 0.22111262 0.052332114 -0.13046132 -0.019295242 -0.0903184
-0.09720583 -0.07903968 -0.20109478 0.12762897 0.20140457 -0.03277166 0.16571371 0.10361676
0.05156949 0.8882366 0.17515904 -0.09047508 -0.13343725 0.2132047 -0.13687952 0.10328101
0.04433706 -0.072356746 -0.108388744 0.28256178 0.26171762 0.023507895 0.07141297 0.0390524
0.1295011 -0.64055634 -0.0035389287 0.09191436 -0.3633104 -0.15927927 0.209443 0.058824282

model.body.2.rdb1.conv1.bias f4 [32]
00000000: 84d1 ca3b 1003 5bbb 3117 783b 5020 213d
00000010: f1d5 743c b71c 1fbc 786e 2d3c f0b8 f7bc
00000020: d896 edbc 3218 883c 13dd 523c 3689 04bc
00000030: 5d88 b33c 9d97 333d 9b1e 143d 7164 21be
00000040: 74c2 813c 8032 15bd 4def 0fbc ca94 8cbd
00000050: cc2c 8cbd a491 36bc 36ae e63b 5054 04bd
00000060: 8e95 093d 5ae5 b63c e0a9 763b 636d 4cbd
00000070: 724f 72bd 0bdc 78bb a8af 88bb 7b1a db3c
0.006189527 -0.0033418573 0.003785562 0.039337456 0.014943586 -0.009711436 0.01058542 -0.030239552
-0.029002592 0.0166131 0.012870091 -0.008089354 0.021915609 0.04384576 0.036162 -0.15760972
0.015839793 -0.036425114 -0.008785081 -0.06864317 -0.06844482 -0.011143122 0.0070398105 -0.03230697
0.033589892 0.02232616 0.0037637874 -0.049909007 -0.059157796 -0.0037972953 -0.0041713305 0.026746025

model.body.2.rdb1.conv2.bias f4 [32]
00000000: 317c b13d 24d5 8b3d 8925 04bc a921 b8bd
00000010: d0bc 37bd ce01 223b b676 56bc a8b8 86bb
00000020: 9108 753d 4196 5abd e773 9abd fcc8 0c3d
00000030: b042 d1bd f75f 353c cdbd a23d cdb3 303d
00000040: a82c 8a3d ca1f b03d 5b92 a53d cb58 abbd
00000050: 1a65 e63c f3a9 b8bd 88c3 793d 29f2 0a3d
00000060: c13a 033d 50f1 4abd c487 eb3a b421 493d
00000070: 3597 253d 355d adbd 2a2c 92be 6a65 cebb
0.08666266 0.06827763 -0.00806559 -0.08990795 -0.0448578 0.0024720314 -0.013089826 -0.004111368
0.059822623 -0.05336595 -0.07541638 0.03437136 -0.10217798 0.011070243 0.07946358 0.04314022
0.06746799 0.08599813 0.08084556 -0.08366545 0.02812438 -0.0901679 0.06097749 0.03392235
0.032038454 -0.04954654 0.0017969538 0.049104407 0.040427405 -0.084650435 -0.2854932 -0.0062987106

model.body.2.rdb1.conv3.bias f4 [32]
00000000: 5443 b73d 9f94 a23d 9798 bb3d 90ff a1bc
00000010: c9e4 0f3d aaf5 033e 6986 943c 2ef4 223d
00000020: f30b 1d3a 199a 8e3d 3cd9 be3d cfaa c43d
00000030: 4116 97bd 5e93 0ebe bcbc a23d c7ee 0b3d
00000040: 9ccd 013e 309f 82bd b54d d03d 71b7 c13d
00000050: 57de a33d ba08 99bd 0d2a 473d e554 f33d
00000060: 9188 15bd a3b8 ecbd d818 e63b 168e 283d
00000070: f388 6d3d 8941 623c 7377 8c3d 16f3 8a3c
0.08948389 0.079385035 0.091599636 -0.019775182 0.035130296 0.12886682 0.018130498 0.03978365
0.0005990855 0.069629855 0.09318778 0.09602892 -0.073772915 -0.13923404 0.079461545 0.034163263
0.1267609 -0.06378019 0.101710714 0.09458817 0.08001392 -0.074723676 0.048624087 0.11881427
-0.036507193 -0.11558654 0.0070220046 0.04115113 0.057991933 0.01380957 0.06858721 0.016961616

model.body.2.rdb1.conv4.bias f4 [32]
00000000: 2b8b 17be ecce 043c 4869 2bbe 1854 b9bc
00000010: c996 a93d 0940 48bd 3602 b33d f6df 323d
00000020: 79cd fe3d 9bda 073c 301c e8ba edb8 a63d
00000030: e49b e8bc 85e4 113c c973 243d 8cc0 55bc
00000040: 9b4d ea3c 3c6c 893b d9f2 babd e5df 933d
00000050: 374d 63bd 8334 3abd 3239 063d 5df9 473c
00000060: 33fc e8bd e995 983d 14ea fa3d f443 edbd
00000070: c4e4 473d 3b37 793d 47cd edbd 4e62 67bd
-0.14799182 0.008105975 -0.1673938 -0.022623107 0.08280713 -0.048889194 0.08740656 0.043670617
0.124415345 0.008291866 -0.0017708596 0.081407405 -0.028394647 0.008904581 0.040149484 -0.013046395
0.028601458 0.0041938107 -0.09128351 0.07220439 -0.05549356 -0.045460235 0.03276939 0.012205449
-0.11376228 0.07450468 0.12251678 -0.11585227 0.048802152 0.060843688 -0.11611419 -0.056490235

model.body.2.rdb1.conv5.bias f4 [64]
00000000: cf50 2cbd a0af 9abd 7a18 e8bc 52ca af3d
00000010: a5df 36bd ee1d 963d 19eb 92bd f92a 933d
00000020: 81a6 8a3d 3edb 3a3d d375 dd3d 82d4 843d
00000030: abec 82bd a107 08be a353 d0bc 91a8 66bd
00000040: 4408 88bc b090 933d 940a 1e3c 9055 14bd
00000050: 5b73 193c 690c 703d 13d3 57be 6610 7a3c
00000060: 3094 5339 ed89 523b 78a3 04bd f187 b7bd
00000070: ff94 7fbd f409 d6bb 3105 47bc 1365 643d
00000080: 321c 113c 7b7d 0f3d 98fe adbd 91e5 70bd
00000090: ecaa 023e 35d2 f0bc bc3d 983d 2817 68bd
000000a0: 0608 53bb 75b9 0e3e fe44 2a3e 5429 453d
000000b0: bf90 933d c6b3 9b3b a23a 0abd 84fa fabb
000000c0: 9e75 42bd a2d2 3c3d e1c2 efbc eb90 303d
000000d0: 876b 463e c9d6 763d f056 353d 4dcd 303d
000000e0: d1ba 283d f42d f2bc ae8a efbc 44fb b7be
000000f0: 62e0 ab3c 21e1 cdbc 9073 91bd 8b4d ab3d
-0.042069253 -0.07553029 -0.028331984 0.085835114 -0.044646878 0.073299274 -0.071737476 0.07185931
0.06770039 0.045619242 0.10813489 0.06485845 -0.06392797 -0.1328416 -0.025430506 -0.0563131
-0.016605504 0.07205331 0.009646077 -0.03621441 0.009365882 0.058605585 -0.21076612 0.015262699
0.00020177732 0.0032125667 -0.03238246 -0.08961476 -0.062397953 -0.006531948 -0.012147234 0.055760454
0.00885682 0.035031777 -0.084958255 -0.05881268 0.12760514 -0.02939711 0.0743365 -0.05666271
-0.0032200827 0.13937934 0.16627881 0.048135117 0.072053425 0.0047516553 -0.033747323 -0.0076592583
-0.04747545 0.046099313 -0.02926773 0.043106955 0.19376956 0.06026343 0.044272363 0.04316454
0.041193787 -0.029562928 -0.029240932 -0.35933888 0.020981018 -0.025131764 -0.0710212 0.083643995

model.body.2.rdb2.conv1.bias f4 [32]
00000000: 09c9 b6bc 7237 acbc a40d cbbc f5c2 96bc
00000010: 7ae5 cbbc 3491 54bd c42d 71bc cbc9 53bc
00000020: da9f 1bbd 3e87 50bc 57f8 d5bc becb 98bc
00000030: e297 c1bc 7df6 f7bb 83dd 8bbd 6c7f fbbc
00000040: a7ad eabc 6b30 87bb ed32 89bc 02ad f8bc
00000050: 3789 9cbc d874 b2bc e898 c5ba 9eb6 e1bc
00000060: 2f9e cdbc de91 1dbd 89d6 48bc 878d d1bc
00000070: 07c5 06bd 707a 5bbc 6674 37bd 5815 39bd
-0.022312658 -0.021022532 -0.024786778 -0.01840351 -0.024889696 -0.05189629 -0.014720384 -0.012926529
-0.037994243 -0.012727557 -0.026119394 -0.01865184 -0.023631994 -0.0075672255 -0.068293594 -0.030700408
-0.028647257 -0.004125645 -0.016747916 -0.030355934 -0.019108398 -0.021784231 -0.0015075477 -0.027552899
-0.025099842 -0.038469188 -0.01225818 -0.02558018 -0.032902744 -0.013395891 -0.04478874 -0.04518637

model.body.2.rdb2.conv2.bias f4 [32]
00000000: 3793 dbbd f000 10bd fa9e ebbc bee0 00bd
00000010: 84c0 fbbb 562e c0bd 9497 cbbc 0740 d3bb
00000020: f4c0 0fbd d244 1abd dbbb 1fbd 2f5e a8bd
00000030: 1982 19bd 9aac 21bd 2b10 42bd c5a3 43bd
00000040: 29cd 5dbd de73 c2bc 393c 2dbe 9e00 10bd
00000050: c6dd 80bc 0147 b5bc fbe7 1c3c 6106 a2bd
00000060: 556c 5cbd b4a8 56bd 92be 0bbd 6b74 babd
00000070: f175 5939 040f 21bd 514f 1ebd 8a06 1bbe
-0.107214384 -0.035157144 -0.02876233 -0.03146433 -0.0076828618 -0.09383838 -0.024852552 -0.0064468416
-0.035096124 -0.03766329 -0.038997512 -0.08221089 -0.037477586 -0.039471246 -0.0473787 -0.047763605
-0.054150734 -0.02373689 -0.16917504 -0.03515684 -0.01573075 -0.022128584 0.009576793 -0.07911373
-0.05381425 -0.05240698 -0.03411729 -0.09104236 0.00020738669 -0.03932096 -0.03864986 -0.15139213

model.body.2.rdb2.conv3.bias f4 [32]
00000000: b99b 82bd b910 b5bc b147 dcbd 68da 8fbd
00000010: 1b16 a7bd 708d 69bd 9d2a 343b 496d eebc
00000020: 11b4 acbc d92c 68bd 973a e3bd 2ec6 27bd
00000030: 43b0 70bd ed8c 8ebd 41ba 48bd 8e72 03bd
00000040: f29e d4bd eab2 13be 29d4 a6bc e061 29bd
00000050: 3664 84bd 1b5c 89bd 3c44 56be 0bab 42be
00000060: 48b3 96bd 3adc 59bd 96d3 2e3d 5e95 6abd
00000070: 43e5 ffbd b657 40bd e770 b5bd e434 85bd
-0.06377358 -0.0221027 -0.107558616 -0.070240796 -0.08158513 -0.05701965 0.002749122 -0.029104846
-0.021081956 -0.056683395 -0.110951595 -0.040960483 -0.058761846 -0.06960473 -0.04900575 -0.03209167
-0.10381879 -0.14423719 -0.020364838 -0.041353106 -0.06464426 -0.06707021 -0.20924467 -0.1901056
-0.07358414 -0.05318854 0.042682253 -0.057271354 -0.124949 -0.046958648 -0.08859425 -0.06504229

model.body.2.rdb2.conv4.bias f4 [32]
00000000: e5c9 01be 6c53 2fbe 49d0 2abd 6ce8 5bbe
00000010: baf4 4fbe b1b9 eebd ea59 7dbe 4a25 25be
00000020: 134f 50bd 4ea4 b4bd 89a3 dfbd cd97 4abd
00000030: 6041 27be f223 6bbe c93d f1bd 01c5 f1bd
00000040: 2ec7 0ebe 6519 43be 349b f5bd 3c69 2ebe
00000050: 37d5 74be 13d7 a9bd 7bf8 38be b5b7 f8bd
00000060: eae2 97be b656 2abe 1f85 2bbe cda4 f2bd
00000070: 90ee 86be 3bea 24be 522f f8bd f7aa 81be
-0.12674673 -0.17121667 -0.041702542 -0.2147538 -0.203082 -0.116565116 -0.2474133 -0.16127506
-0.05085666 -0.08820401 -0.10919864 -0.049461175 -0.16333532 -0.22962931 -0.11779363 -0.11805154
-0.13943169 -0.19052656 -0.11992493 -0.17032331 -0.2390946 -0.08292975 -0.18063538 -0.12144414
-0.2966531 -0.1663464 -0.1675 -0.118478395 -0.26353884 -0.16104977 -0.12118401 -0.25325748

model.body.2.rdb2.conv5.bias f4 [64]
00000000: 7dce 81bd 1fd0 34bd 9df8 973c 5668 9bbc
00000010: 6452 77bd e798 553d 9d3b e8bc dce5 153e
00000020: 7a55 d9bb d620 8cbc 0e3f bdbd 470e a3bd
00000030: 6ca9 ccbd 956c 5abd ec5e 1dbd 88f7 ddbd
00000040: 4f07 7d3d cd33 913d 03b7 a1bd a123 363c
00000050: 3fde a33a e87d 61bd d913 99bc bd4c 133c
00000060: 47dd 753c 60ec 13bd a0df 743c 6838 4c3d
00000070: 2c7a d6bd eba3 90bd c429 39bd 0310 b23d
00000080: 2fe9 16bb 1805 c83d 5c8d e73c dd4e 09be
00000090: a932 e2bd d2ed 88bb 4737 ba3c eecc e2bd
000000a0: 9ba0 173d 4155 1c3c be29 f73d 55fd a7bd
000000b0: 0586 94bd a7a4 32bd 0dd1 6e3d 304a 57bc
000000c0: cae2 c9bc 898a 1fbc 3900 cc3c 7441 35bc
000000d0: 8f39 0b3e ef8c 9bbc d0d1 023e d402 0d3d
000000e0: 84be 80bd 32be 03bd 7a1f 5cbd ff37 4fbd
000000f0: d352 cf3d 04b7 5abd 01bf 283d 19cd 81bd
-0.06338213 -0.044143792 0.018551165 -0.01897065 -0.06038131 0.052147772 -0.028348738 0.14638466
-0.006632504 -0.017105501 -0.09240542 -0.079617076 -0.09993252 -0.05332621 -0.038420603 -0.108382285
0.06177455 0.07089958 -0.07896235 0.011116893 0.0012502148 -0.055051714 -0.018686222 0.008990464
0.01500637 -0.036114097 0.0149458945 0.04985848 -0.10472521 -0.07062515 -0.045205846 0.0869446
-0.0023027172 0.097665966 0.028265648 -0.1340899 -0.11044819 -0.004178741 0.022731436 -0.110742435
0.0370184 0.0095418105 0.120685086 -0.08202616 -0.07252125 -0.043614056 0.058304835 -0.013140246
-0.024644274 -0.009737619 0.02490245 -0.0110629685 0.13596176 -0.0189881 0.1277535 0.034426525
-0.06286338 -0.032163806 -0.053740956 -0.05059051 0.10123219 -0.053397194 0.04119778 -0.063379474

model.body.2.rdb3.conv1.bias f4 [32]
00000000: 1bc4 40bd cc80 1cbd 5783 80bd 2327 9ebd
00000010: 56ae 2abd f2a9 0ebd 9d5a bcbd 47c8 65bd
00000020: 3750 56bd 4fec 4dbc 55e1 33bd a5b6 83bc
00000030: 1333 86bd 33dc dfbc 87ac 94bc dce5 fbbc
00000040: b4b0 c2bd 1b20 46bd 775b 69bd c2e5 20bd
00000050: f999 0dbd 4002 9dbc da13 4cbd fe4b e3bd
00000060: 03b9 c2bc 9dde ecbd c90f 13bd e2e6 edbc
00000070: c63f 8bbd c1fe adbd 549a 84bc 791b 3cbd
-0.04706202 -0.038208768 -0.06275051 -0.077223085 -0.041670166 -0.03483004 -0.091969706 -0.056099202
-0.052322593 -0.012568547 -0.043916065 -0.016078303 -0.065527104 -0.027326679 -0.018148674 -0.030749254
-0.0950636 -0.048370462 -0.056971993 -0.039281614 -0.034570668 -0.019166112 -0.04982362 -0.11098479
-0.023769861 -0.115658976 -0.035903726 -0.029040758 -0.06799273 -0.08495856 -0.01618687 -0.045924637

model.body.2.rdb3.conv2.bias f4 [32]
00000000: be67 94bc c258 23be 6c1f ddbd 3322 1dbe
00000010: 58f5 7dbd 6ae7 bebd 68a2 c1bd 91a0 09be
00000020: a1bd 98be e385 f6bd 0f2d c1bd fe0c dbbd
00000030: 8afc be3b 239f eebd 740d 59be ca2b f2bd
00000040: e445 10bd f4c8 13be 1ad8 c3bd aed7 8bbd
00000050: 4a79 0cbe 55c7 f2bd 583e 31be b434 0ebe
00000060: 6437 a9bd 7ef0 31be 741f 10bd 9da4 a6bd
00000070: fc8a 6fbd f66a ccba 2adb 70bd f269 29bd
-0.018115874 -0.15951827 -0.10797009 -0.15345077 -0.062001556 -0.093214825 -0.09454805 -0.13440157
-0.29832175 -0.120372556 -0.09432422 -0.106958374 0.005828445 -0.11651447 -0.21196538 -0.11824758
-0.035222903 -0.14432126 -0.095627025 -0.06828247 -0.13718143 -0.11854426 -0.17308939 -0.13887292
-0.08262518 -0.17376897 -0.035186246 -0.08136866 -0.058482155 -0.0015595842 -0.05880276 -0.041360803

model.body.2.rdb3.conv3.bias f4 [32]
00000000: d13a 0dbe 30e8 12be 2aa6 12be 4682 8ebc
00000010: 21b2 043d 8d77 263e 8caf c7bd ef3d 473d
00000020: 2a48 1e3b 8830 e3bd cf87 bebd 49db e2bd
00000030: aa80 03bd f92c bebc b975 99bd d24f 90bc
00000040: ef2e 4b3d a878 f63d 7861 d8bc 7495 4bbe
00000050: 1914 143e 39cb 043e e31e 22bd 6efe 8fbe
00000060: e315 3e3e 77da 8d3d 2d43 923d 7321 573d
00000070: ff13 43bd ec5d 92bc 0720 183e 853f 643d
-0.13791968 -0.14346385 -0.14321199 -0.017396104 0.03239644 0.16256543 -0.0975028 0.04864305
0.00241519 -0.11093241 -0.09303247 -0.110769816 -0.032105125 -0.023214804 -0.07493157 -0.017616186
0.049605306 0.12034732 -0.026413664 -0.1988123 0.14460792 0.12968148 -0.039580237 -0.28123802
0.18563037 0.069264345 0.07141719 0.052522134 -0.04762649 -0.017867051 0.14855967 0.05572464

model.body.2.rdb3.conv4.bias f4 [32]
00000000: 0ccf b6be 1090 77bc 1d2d 3c3c b03d 3abe
00000010: 0a0b 7b3e 382b 573d 52b3 d23d 23f2 aebe
00000020: d351 233b 2f8b 19be 5e44 01be 5a06 a9be
00000030: 07e5 113c 78ae b7bc d193 a13d 2f72 843d
00000040: 6782 753d 9956 22be beac cb3d ff70 2e3e
00000050: 54d9 bcbe 1f2c d93d 5326 cd3d 50ac c3bc
00000060: a48e febd f51b b6bd 29b3 a23d a0c6 293d
00000070: 7432 8cbd 5781 c73d c2a4 4ebe 7eae c9bc
-0.3570484 -0.015110031 0.011485365 -0.18187594 0.2451593 0.05253145 0.10288109 -0.3416911
0.0024920597 -0.149945 -0.12623736 -0.33012658 0.008904702 -0.02242206 0.07889522 0.06467091
0.059938814 -0.15853347 0.09945057 0.17035292 -0.36884558 0.106041186 0.100170754 -0.023885876
-0.1242955 -0.08892051 0.07944328 0.04144919 -0.06845561 0.097414665 -0.20180038 -0.024619337

model.body.2.rdb3.conv5.bias f4 [64]
00000000: 4018 9f3d 0991 eebe 33f2 c1bd 5690 e03e
00000010: 9481 1bbe 030d bd3e f658 8c3c fadd 0d3d
00000020: 7b1a c8bd 624a d8bd 26b5 b9bd 5043 f63d
00000030: 7071 30bd e255 293e 46bf 7cbe 8fc5 d1bd
00000040: 6c63 a3bd 7c97 2a3e c341 8b3d 13f5 1e3c
00000050: 7261 0ebc 1dc1 20be bc7f 7abd 2d57 15bd
00000060: 6ecb a6bd ad68 8b3d 9640 34bd 2599 833d
00000070: a1f6 083e a982 2abb 19ec cdbc e8e3 8dba
00000080: 7eac 5bbe 5314 77bd 0226 503d 14fa fdbd
00000090: 0bf5 09be a15b aa3d f066 ed3d c7e9 863c
000000a0: 32ed acbd 4acb 273f c7d7 cb3d 65b0 9a3d
000000b0: c2ab 5fbc f637 b7bc f525 cabd 2772 85be
000000c0: f4d2 2c3d 5393 9a3d 8406 b3bd b115 ec3d
000000d0: f4d9 893e aafe d53d 49b6 acbc a775 d33c
000000e0: a723 403d 2015 1dbf d64a 4dbe 939d a1bd
000000f0: 9d8e 23be ce0c 7abe 9904 28be 2967 143d
0.07768297 -0.46595028 -0.09470024 0.4386012 -0.15186149 0.3692399 0.017132264 0.03463552
-0.09770676 -0.105610624 -0.090677544 0.120245576 -0.043076932 0.16536668 -0.2468234 -0.102427594
-0.079779476 0.16659349 0.067996524 0.009701985 -0.008690225 -0.15698667 -0.061156973 -0.03646009
-0.0814427 0.06807075 -0.044006906 0.064256944 0.13375331 -0.002601782 -0.025136994 -0.0010825368
-0.2145252 -0.060322117 0.050817497 -0.12401214 -0.13472383 0.08318258 0.115918994 0.016468896
-0.08443679 0.6554457 0.09953266 0.07553176 -0.01365179 -0.022365551 -0.09870521 -0.26063654
0.042193368 0.07547631 -0.08741477 0.11527575 0.26924098 0.10448964 -0.021083014 0.025812937
0.046909 -0.6136036 -0.20048079 -0.07891383 -0.15972371 -0.24418947 -0.16408004 0.036231194

model.body.3.rdb1.conv1.bias f4 [32]
00000000: 0645 86bc 6211 82bd ac78 0dbf 843e 27bd
00000010: e0e7 cfbd 2637 46bd 9016 48bd ad30 d73a
00000020: 77c0 8abd 48ec bebd 95b1 aebc 148b ddbc
00000030: 93cc 20be 7527 2abd 231a fcbc 92b0 2dbc
00000040: 27db 4ebd 0a58 26be b7ea a2bc e744 5bbe
00000050: c233 6cbd 0de9 06bd d4d0 6bbe b084 b1bd
00000060: 25b0 dcbd 8520 30bd e283 49bd bd0d cebd
00000070: 8ae6 5fbd 7ec0 2cbd 9cab abbc bb1c 58bd
-0.016390335 -0.06350972 -0.55262256 -0.040831104 -0.101516485 -0.048392437 -0.048849642 0.0016417705
-0.06774991 -0.09322411 -0.021324912 -0.027043857 -0.15703039 -0.041541535 -0.030774182 -0.01060118
-0.05050197 -0.16244522 -0.019887311 -0.21413003 -0.057666548 -0.0329371 -0.2302888 -0.08667886
-0.107757844 -0.042999763 -0.04919804 -0.10061214 -0.05466322 -0.042175762 -0.020955853 -0.052761775

model.body.3.rdb1.conv2.bias f4 [32]
00000000: 4fbe 07be 9795 f8bc 8b04 b0bc 6c4f e8bd
00000010: 3e90 c4bd 4d71 a3bd fee2 e3bd 4e44 43bd
00000020: 82e8 1f3e fed2 41bd d99c 68bd 99b6 ecbe
00000030: d8e8 95bd 1692 1abe 83ab 0ebd d607 b63d
00000040: cdf6 bfbe 1beb 5fbd 2de1 cf3c ec8f 30bd
00000050: 5b36 61bd 0a0f 98be 160e b2bd bb91 28bd
00000060: ca09 6fbe 5138 cdbd f45a 08be 7ba3 39be
00000070: 51f0 5abe 1e5c 99be 0bcd 12be 2add 19bf
-0.1325619 -0.030344767 -0.021486541 -0.113432735 -0.095978245 -0.07980595 -0.1112728 -0.047672562
0.15616038 -0.04732036 -0.056790207 -0.4623306 -0.07319802 -0.1509479 -0.034831535 0.08888213
-0.37492982 -0.054667573 0.025375927 -0.043106005 -0.054983478 -0.29698974 -0.08694093 -0.041154604
-0.23343578 -0.10020507 -0.13315946 -0.18128769 -0.21380736 -0.29953092 -0.1433603 -0.60103095

model.body.3.rdb1.conv3.bias f4 [32]
00000000: d878 153e d358 febd 44bc ef3d 4897 5dbd
00000010: 527c 623e e0be c63d 407d 023e 3002 cfbd
00000020: e2ad e53d c286 9fbd ae3b 30be c2a9 b8bd
00000030: 371b 1b3e 01fc fa3d 7f9d 2cbe fc85 d03c
00000040: e802 e03c c541 5f3d 77a0 09bf ec2c 053d
00000050: bf52 1ebd e266 4fbe 9f71 8cbd 1358 e6bc
00000060: 29ee 763d 98e0 b9bd c86c b63c 992f c8bc
00000070: 215b 273e 770e 0f3d 865f 96bd 7e95 c0bb
0.1459688 -0.124192856 0.11705831 -0.05409935 0.22117737 0.09704375 0.12743092 -0.10107839
0.11214806 -0.07789375 -0.17210266 -0.09016754 0.151471 0.12255097 -0.16856955 0.025454514
0.027345136 0.054506082 -0.53760475 0.032513544 -0.03865313 -0.2025409 -0.06857609 -0.028118169
0.06028572 -0.09076041 0.022268668 -0.024436759 0.16343357 0.034925904 -0.073424384 -0.005877196

model.body.3.rdb1.conv4.bias f4 [32]
00000000: 3df9 bf3d 9e22 8cbc 3b0f b6bd 1278 2b3e
00000010: fa00 a4bd e7ed d73d 4504 043e 43ea 293d
00000020: f8d5 14be 0c3e 5abe 8d74 c1bd 1df6 fa3d
00000030: 6477 323d f1d3 49be 55a7 a03d 8ffe 27be
00000040: df0e 293d 9ec2 ad3d 0d54 afbe 96cc ef3b
00000050: e2de a83c 622b 7dbe b2c8 333e f4e5 b6bd
00000060: 73ab 833e 2b53 ce3c 573c 963d f66d f2bc
00000070: f550 1b3c e86a d6bd b9fe 98bd 24aa e33d
0.0937371 -0.01710635 -0.08889624 0.16745022 -0.08007999 0.10543423 0.12892254 0.041483175
-0.14534748 -0.21312732 -0.094460584 0.12253974 0.04357089 -0.19709755 0.07844416 -0.164057
0.041273948 0.08484386 -0.34243813 0.0073180897 0.020614091 -0.2472358 0.17557028 -0.08930579
0.25716743 0.025186142 0.07335728 -0.02959345 0.009479751 -0.104696095 -0.074704595 0.11116436

model.body.3.rdb1.conv5.bias f4 [64]
00000000: f4f6 2cbe 9fad 15be eed9 8dbd 0b17 b23d
00000010: 81b3 5c3e f33e 373e ec31 dd3b b1e6 0cbe
00000020: 22bb 29be 7328 823d a7b0 f7bc 9883 4a3c
00000030: 1583 32bd 9be1 163c e8e8 0ebe 7914 6bbe
00000040: e7e7 e7bc cb87 50bd 75ee 173d fd3b 1a3e
00000050: fa98 19bd 8bf4 9cbd 4361 a33d 044a 443e
00000060: 9913 1ebd b6ed 3ebd 3270 063d 9daa 2cbd
00000070: 8d5f 61bd 5bbd 993d a011 84bd b796 973d
00000080: 79c2 e63c 7f1d 8abd a3ab ce3d 834b bbbd
00000090: 617f 3dbd 8f98 1b3e 507c a73c 695a c7bd
000000a0: 5cf8 71bd cc0e b83c b452 7cbc b09a 6cbc
000000b0: ab11 f0bd 173b 96bc e65b 47bd 8025 38bd
000000c0: 7141 50bc 2dd3 b3bc e361 5d3d 5d8a b43d
000000d0: 2bba 043d 51e8 d13d cb1b cfbc 5da9 b03d
000000e0: f27d e83e c06b 80be 8196 84bd 3e9e 6ebd
000000f0: 1332 00bd fc1c b13d 9377 5dbd 3b04 6e3c
-0.1689108 -0.14617012 -0.069263324 0.08695801 0.2155285 0.17895107 0.006750336 -0.13759877
-0.16575292 0.06355371 -0.030235602 0.012360476 -0.04358204 0.009209062 -0.13956034 -0.22957028
-0.028308822 -0.050910752 0.037092645 0.15061946 -0.037499405 -0.0766383 0.079775356 0.1916886
-0.03859291 -0.046613418 0.03282184 -0.042154897 -0.055022765 0.0750682 -0.06448674 0.074017935
0.028168904 -0.06743907 0.10091331 -0.09145262 -0.046264056 0.15194915 0.020445019 -0.09734041
-0.059074745 0.022467993 -0.015400577 -0.014441177 -0.1172212 -0.018338723 -0.048671626 -0.044957638
-0.012710915 -0.021951282 0.05404843 0.08815453 0.032404106 0.10249389 -0.025281807 0.086260535
0.4540859 -0.25082207 -0.06474019 -0.05825638 -0.031297754 0.086481065 -0.054069113 0.014527376

model.body.3.rdb2.conv1.bias f4 [32]
00000000: ba8b 2fbd f8e0 20bd b80e d7bd 6a44 5fbd
00000010: f9ab 36bd 95f7 e9bc bf77 b2bc d63c 4bbd
00000020: c714 dbbd 1b1d a4bd 838c b1bd fca8 0cbd
00000030: 6515 c8bd b546 64bd bb55 36bd c8c3 36bd
00000040: de82 8fbd 9a1a 8abc 2253 a0bd b3d2 44bd
00000050: b4d9 60bd 5fe0 42bd 6d1b e5bd 98a3 20bd
00000060: 6a24 29bd 4549 0bbe 17e5 17be eaee 9fbd
00000070: 43f6 70bd 860a 20bd 7d13 59bd beb1 e3bc
-0.042857863 -0.039277047 -0.10500854 -0.054508604 -0.0445976 -0.02856044 -0.021785615 -0.049618565
-0.10697322 -0.08013364 -0.086693786 -0.034340844 -0.09769706 -0.055731494 -0.044515353 -0.044620305
-0.07007383 -0.016858388 -0.07828356 -0.0480525 -0.054895118 -0.04757726 -0.11186872 -0.039218515
-0.041294493 -0.13602169 -0.14833485 -0.07809241 -0.058828603 -0.039072536 -0.0529971 -0.027794715
